…
       "- This IS NOT expected if you are initializing BertForSequenceClassification from the checkpoint of a model that you expect to be exactly identical (initializing a BertForSequenceClassification model from a BertForSequenceClassification model).\n",
       "Some weights of BertForSequenceClassification were not initialized from the model checkpoint at bert-base-multilingual-cased and are newly initialized: ['classifier.weight', 'classifier.bias']\n",
       "You should probably TRAIN this model on a down-stream task to be able to use it for predictions and inference.\n",
       "done!\n"
      ]
+    },
+    {
+     "output_type": "execute_result",
+     "data": {
+      "text/plain": [
+       "VanillaBert(\n",
+       "  (backbone): BertModel(\n",
+       "    (embeddings): BertEmbeddings(\n",
+       "      (word_embeddings): Embedding(119547, 768, padding_idx=0)\n",
+       "      (position_embeddings): Embedding(512, 768)\n",
+       "      (token_type_embeddings): Embedding(2, 768)\n",
+       "      (LayerNorm): LayerNorm((768,), eps=1e-12, elementwise_affine=True)\n",
+       "      (dropout): Dropout(p=0.1, inplace=False)\n",
+       "    )\n",
+       "    (encoder): BertEncoder(\n",
+       "      (layer): ModuleList(\n",
+       "        (0): BertLayer(\n",
+       "          (attention): BertAttention(\n",
+       "            (self): BertSelfAttention(\n",
+       "              (query): Linear(in_features=768, out_features=768, bias=True)\n",
+       "              (key): Linear(in_features=768, out_features=768, bias=True)\n",
+       "              (value): Linear(in_features=768, out_features=768, bias=True)\n",
+       "              (dropout): Dropout(p=0.1, inplace=False)\n",
+       "            )\n",
+       "            (output): BertSelfOutput(\n",
+       "              (dense): Linear(in_features=768, out_features=768, bias=True)\n",
+       "              (LayerNorm): LayerNorm((768,), eps=1e-12, elementwise_affine=True)\n",
+       "              (dropout): Dropout(p=0.1, inplace=False)\n",
+       "            )\n",
+       "          )\n",
+       "          (intermediate): BertIntermediate(\n",
+       "            (dense): Linear(in_features=768, out_features=3072, bias=True)\n",
+       "          )\n",
+       "          (output): BertOutput(\n",
+       "            (dense): Linear(in_features=3072, out_features=768, bias=True)\n",
+       "            (LayerNorm): LayerNorm((768,), eps=1e-12, elementwise_affine=True)\n",
+       "            (dropout): Dropout(p=0.1, inplace=False)\n",
+       "          )\n",
+       "        )\n",
+       "        (1): BertLayer(\n",
+       "          (attention): BertAttention(\n",
+       "            (self): BertSelfAttention(\n",
+       "              (query): Linear(in_features=768, out_features=768, bias=True)\n",
+       "              (key): Linear(in_features=768, out_features=768, bias=True)\n",
+       "              (value): Linear(in_features=768, out_features=768, bias=True)\n",
+       "              (dropout): Dropout(p=0.1, inplace=False)\n",
+       "            )\n",
+       "            (output): BertSelfOutput(\n",
+       "              (dense): Linear(in_features=768, out_features=768, bias=True)\n",
+       "              (LayerNorm): LayerNorm((768,), eps=1e-12, elementwise_affine=True)\n",
+       "              (dropout): Dropout(p=0.1, inplace=False)\n",
+       "            )\n",
+       "          )\n",
+       "          (intermediate): BertIntermediate(\n",
+       "            (dense): Linear(in_features=768, out_features=3072, bias=True)\n",
+       "          )\n",
+       "          (output): BertOutput(\n",
+       "            (dense): Linear(in_features=3072, out_features=768, bias=True)\n",
+       "            (LayerNorm): LayerNorm((768,), eps=1e-12, elementwise_affine=True)\n",
+       "            (dropout): Dropout(p=0.1, inplace=False)\n",
+       "          )\n",
+       "        )\n",
+       "        (2): BertLayer(\n",
+       "          (attention): BertAttention(\n",
+       "            (self): BertSelfAttention(\n",
+       "              (query): Linear(in_features=768, out_features=768, bias=True)\n",
+       "              (key): Linear(in_features=768, out_features=768, bias=True)\n",
+       "              (value): Linear(in_features=768, out_features=768, bias=True)\n",
+       "              (dropout): Dropout(p=0.1, inplace=False)\n",
+       "            )\n",
+       "            (output): BertSelfOutput(\n",
+       "              (dense): Linear(in_features=768, out_features=768, bias=True)\n",
+       "              (LayerNorm): LayerNorm((768,), eps=1e-12, elementwise_affine=True)\n",
+       "              (dropout): Dropout(p=0.1, inplace=False)\n",
+       "            )\n",
+       "          )\n",
+       "          (intermediate): BertIntermediate(\n",
+       "            (dense): Linear(in_features=768, out_features=3072, bias=True)\n",
+       "          )\n",
+       "          (output): BertOutput(\n",
+       "            (dense): Linear(in_features=3072, out_features=768, bias=True)\n",
+       "            (LayerNorm): LayerNorm((768,), eps=1e-12, elementwise_affine=True)\n",
+       "            (dropout): Dropout(p=0.1, inplace=False)\n",
+       "          )\n",
+       "        )\n",
+       "        (3): BertLayer(\n",
+       "          (attention): BertAttention(\n",
+       "            (self): BertSelfAttention(\n",
+       "              (query): Linear(in_features=768, out_features=768, bias=True)\n",
+       "              (key): Linear(in_features=768, out_features=768, bias=True)\n",
+       "              (value): Linear(in_features=768, out_features=768, bias=True)\n",
+       "              (dropout): Dropout(p=0.1, inplace=False)\n",
+       "            )\n",
+       "            (output): BertSelfOutput(\n",
+       "              (dense): Linear(in_features=768, out_features=768, bias=True)\n",
+       "              (LayerNorm): LayerNorm((768,), eps=1e-12, elementwise_affine=True)\n",
+       "              (dropout): Dropout(p=0.1, inplace=False)\n",
+       "            )\n",
+       "          )\n",
+       "          (intermediate): BertIntermediate(\n",
+       "            (dense): Linear(in_features=768, out_features=3072, bias=True)\n",
+       "          )\n",
+       "          (output): BertOutput(\n",
+       "            (dense): Linear(in_features=3072, out_features=768, bias=True)\n",
+       "            (LayerNorm): LayerNorm((768,), eps=1e-12, elementwise_affine=True)\n",
+       "            (dropout): Dropout(p=0.1, inplace=False)\n",
+       "          )\n",
+       "        )\n",
+       "        (4): BertLayer(\n",
+       "          (attention): BertAttention(\n",
+       "            (self): BertSelfAttention(\n",
+       "              (query): Linear(in_features=768, out_features=768, bias=True)\n",
+       "              (key): Linear(in_features=768, out_features=768, bias=True)\n",
+       "              (value): Linear(in_features=768, out_features=768, bias=True)\n",
+       "              (dropout): Dropout(p=0.1, inplace=False)\n",
+       "            )\n",
+       "            (output): BertSelfOutput(\n",
+       "              (dense): Linear(in_features=768, out_features=768, bias=True)\n",
+       "              (LayerNorm): LayerNorm((768,), eps=1e-12, elementwise_affine=True)\n",
+       "              (dropout): Dropout(p=0.1, inplace=False)\n",
+       "            )\n",
+       "          )\n",
+       "          (intermediate): BertIntermediate(\n",
+       "            (dense): Linear(in_features=768, out_features=3072, bias=True)\n",
+       "          )\n",
+       "          (output): BertOutput(\n",
+       "            (dense): Linear(in_features=3072, out_features=768, bias=True)\n",
+       "            (LayerNorm): LayerNorm((768,), eps=1e-12, elementwise_affine=True)\n",
+       "            (dropout): Dropout(p=0.1, inplace=False)\n",
+       "          )\n",
+       "        )\n",
+       "        (5): BertLayer(\n",
+       "          (attention): BertAttention(\n",
+       "            (self): BertSelfAttention(\n",
+       "              (query): Linear(in_features=768, out_features=768, bias=True)\n",
+       "              (key): Linear(in_features=768, out_features=768, bias=True)\n",
+       "              (value): Linear(in_features=768, out_features=768, bias=True)\n",
+       "              (dropout): Dropout(p=0.1, inplace=False)\n",
+       "            )\n",
+       "            (output): BertSelfOutput(\n",
+       "              (dense): Linear(in_features=768, out_features=768, bias=True)\n",
+       "              (LayerNorm): LayerNorm((768,), eps=1e-12, elementwise_affine=True)\n",
+       "              (dropout): Dropout(p=0.1, inplace=False)\n",
+       "            )\n",
+       "          )\n",
+       "          (intermediate): BertIntermediate(\n",
+       "            (dense): Linear(in_features=768, out_features=3072, bias=True)\n",
+       "          )\n",
+       "          (output): BertOutput(\n",
+       "            (dense): Linear(in_features=3072, out_features=768, bias=True)\n",
+       "            (LayerNorm): LayerNorm((768,), eps=1e-12, elementwise_affine=True)\n",
+       "            (dropout): Dropout(p=0.1, inplace=False)\n",
+       "          )\n",
+       "        )\n",
+       "        (6): BertLayer(\n",
+       "          (attention): BertAttention(\n",
+       "            (self): BertSelfAttention(\n",
+       "              (query): Linear(in_features=768, out_features=768, bias=True)\n",
+       "              (key): Linear(in_features=768, out_features=768, bias=True)\n",
+       "              (value): Linear(in_features=768, out_features=768, bias=True)\n",
+       "              (dropout): Dropout(p=0.1, inplace=False)\n",
+       "            )\n",
+       "            (output): BertSelfOutput(\n",
+       "              (dense): Linear(in_features=768, out_features=768, bias=True)\n",
+       "              (LayerNorm): LayerNorm((768,), eps=1e-12, elementwise_affine=True)\n",
+       "              (dropout): Dropout(p=0.1, inplace=False)\n",
+       "            )\n",
+       "          )\n",
+       "          (intermediate): BertIntermediate(\n",
+       "            (dense): Linear(in_features=768, out_features=3072, bias=True)\n",
+       "          )\n",
+       "          (output): BertOutput(\n",
+       "            (dense): Linear(in_features=3072, out_features=768, bias=True)\n",
+       "            (LayerNorm): LayerNorm((768,), eps=1e-12, elementwise_affine=True)\n",
+       "            (dropout): Dropout(p=0.1, inplace=False)\n",
+       "          )\n",
+       "        )\n",
+       "        (7): BertLayer(\n",
+       "          (attention): BertAttention(\n",
+       "            (self): BertSelfAttention(\n",
+       "              (query): Linear(in_features=768, out_features=768, bias=True)\n",
+       "              (key): Linear(in_features=768, out_features=768, bias=True)\n",
+       "              (value): Linear(in_features=768, out_features=768, bias=True)\n",
+       "              (dropout): Dropout(p=0.1, inplace=False)\n",
+       "            )\n",
+       "            (output): BertSelfOutput(\n",
+       "              (dense): Linear(in_features=768, out_features=768, bias=True)\n",
+       "              (LayerNorm): LayerNorm((768,), eps=1e-12, elementwise_affine=True)\n",
+       "              (dropout): Dropout(p=0.1, inplace=False)\n",
+       "            )\n",
+       "          )\n",
+       "          (intermediate): BertIntermediate(\n",
+       "            (dense): Linear(in_features=768, out_features=3072, bias=True)\n",
+       "          )\n",
+       "          (output): BertOutput(\n",
+       "            (dense): Linear(in_features=3072, out_features=768, bias=True)\n",
+       "            (LayerNorm): LayerNorm((768,), eps=1e-12, elementwise_affine=True)\n",
+       "            (dropout): Dropout(p=0.1, inplace=False)\n",
+       "          )\n",
+       "        )\n",
+       "        (8): BertLayer(\n",
+       "          (attention): BertAttention(\n",
+       "            (self): BertSelfAttention(\n",
+       "              (query): Linear(in_features=768, out_features=768, bias=True)\n",
+       "              (key): Linear(in_features=768, out_features=768, bias=True)\n",
+       "              (value): Linear(in_features=768, out_features=768, bias=True)\n",
+       "              (dropout): Dropout(p=0.1, inplace=False)\n",
+       "            )\n",
+       "            (output): BertSelfOutput(\n",
+       "              (dense): Linear(in_features=768, out_features=768, bias=True)\n",
+       "              (LayerNorm): LayerNorm((768,), eps=1e-12, elementwise_affine=True)\n",
+       "              (dropout): Dropout(p=0.1, inplace=False)\n",
+       "            )\n",
+       "          )\n",
+       "          (intermediate): BertIntermediate(\n",
+       "            (dense): Linear(in_features=768, out_features=3072, bias=True)\n",
+       "          )\n",
+       "          (output): BertOutput(\n",
+       "            (dense): Linear(in_features=3072, out_features=768, bias=True)\n",
+       "            (LayerNorm): LayerNorm((768,), eps=1e-12, elementwise_affine=True)\n",
+       "            (dropout): Dropout(p=0.1, inplace=False)\n",
+       "          )\n",
+       "        )\n",
+       "        (9): BertLayer(\n",
+       "          (attention): BertAttention(\n",
+       "            (self): BertSelfAttention(\n",
+       "              (query): Linear(in_features=768, out_features=768, bias=True)\n",
+       "              (key): Linear(in_features=768, out_features=768, bias=True)\n",
+       "              (value): Linear(in_features=768, out_features=768, bias=True)\n",
+       "              (dropout): Dropout(p=0.1, inplace=False)\n",
+       "            )\n",
+       "            (output): BertSelfOutput(\n",
+       "              (dense): Linear(in_features=768, out_features=768, bias=True)\n",
+       "              (LayerNorm): LayerNorm((768,), eps=1e-12, elementwise_affine=True)\n",
+       "              (dropout): Dropout(p=0.1, inplace=False)\n",
+       "            )\n",
+       "          )\n",
+       "          (intermediate): BertIntermediate(\n",
+       "            (dense): Linear(in_features=768, out_features=3072, bias=True)\n",
+       "          )\n",
+       "          (output): BertOutput(\n",
+       "            (dense): Linear(in_features=3072, out_features=768, bias=True)\n",
+       "            (LayerNorm): LayerNorm((768,), eps=1e-12, elementwise_affine=True)\n",
+       "            (dropout): Dropout(p=0.1, inplace=False)\n",
+       "          )\n",
+       "        )\n",
+       "        (10): BertLayer(\n",
+       "          (attention): BertAttention(\n",
+       "            (self): BertSelfAttention(\n",
+       "              (query): Linear(in_features=768, out_features=768, bias=True)\n",
+       "              (key): Linear(in_features=768, out_features=768, bias=True)\n",
+       "              (value): Linear(in_features=768, out_features=768, bias=True)\n",
+       "              (dropout): Dropout(p=0.1, inplace=False)\n",
+       "            )\n",
+       "            (output): BertSelfOutput(\n",
+       "              (dense): Linear(in_features=768, out_features=768, bias=True)\n",
+       "              (LayerNorm): LayerNorm((768,), eps=1e-12, elementwise_affine=True)\n",
+       "              (dropout): Dropout(p=0.1, inplace=False)\n",
+       "            )\n",
+       "          )\n",
+       "          (intermediate): BertIntermediate(\n",
+       "            (dense): Linear(in_features=768, out_features=3072, bias=True)\n",
+       "          )\n",
+       "          (output): BertOutput(\n",
+       "            (dense): Linear(in_features=3072, out_features=768, bias=True)\n",
+       "            (LayerNorm): LayerNorm((768,), eps=1e-12, elementwise_affine=True)\n",
+       "            (dropout): Dropout(p=0.1, inplace=False)\n",
+       "          )\n",
+       "        )\n",
+       "        (11): BertLayer(\n",
+       "          (attention): BertAttention(\n",
+       "            (self): BertSelfAttention(\n",
+       "              (query): Linear(in_features=768, out_features=768, bias=True)\n",
+       "              (key): Linear(in_features=768, out_features=768, bias=True)\n",
+       "              (value): Linear(in_features=768, out_features=768, bias=True)\n",
+       "              (dropout): Dropout(p=0.1, inplace=False)\n",
+       "            )\n",
+       "            (output): BertSelfOutput(\n",
+       "              (dense): Linear(in_features=768, out_features=768, bias=True)\n",
+       "              (LayerNorm): LayerNorm((768,), eps=1e-12, elementwise_affine=True)\n",
+       "              (dropout): Dropout(p=0.1, inplace=False)\n",
+       "            )\n",
+       "          )\n",
+       "          (intermediate): BertIntermediate(\n",
+       "            (dense): Linear(in_features=768, out_features=3072, bias=True)\n",
+       "          )\n",
+       "          (output): BertOutput(\n",
+       "            (dense): Linear(in_features=3072, out_features=768, bias=True)\n",
+       "            (LayerNorm): LayerNorm((768,), eps=1e-12, elementwise_affine=True)\n",
+       "            (dropout): Dropout(p=0.1, inplace=False)\n",
+       "          )\n",
+       "        )\n",
+       "      )\n",
+       "    )\n",
+       "    (pooler): BertPooler(\n",
+       "      (dense): Linear(in_features=768, out_features=768, bias=True)\n",
+       "      (activation): Tanh()\n",
+       "    )\n",
+       "  )\n",
+       "  (layernorm): LayerNorm((768,), eps=1e-05, elementwise_affine=True)\n",
+       "  (dropout): Dropout(p=0.5, inplace=False)\n",
+       "  (relu): ReLU()\n",
+       "  (linear): Linear(in_features=768, out_features=42, bias=True)\n",
+       ")"
+      ]
+     },
+     "metadata": {},
+     "execution_count": 47
+    }
+   ],
+   "source": [
+    "model_notrain = load_model(\n",
+    "        model_type, pretrained_type, 42, None, 0\n",
+    "    )\n",
+    "model_notrain.eval()"
+   ]
+  },
+  {
+   "cell_type": "code",
+   "execution_count": 48,
+   "metadata": {},
+   "outputs": [
…
